models/buyer.ckpt (torch_old, 277306 bytes, 6 tensors)

weight f4 [500, 6]
000000 00 7b 71 bd 1d 37 72 be 4c 92 7f 3e cb 04 4f be
       -0.058955193 -0.23653837 0.24958152 -0.20216672
000010 50 a8 c3 3c 75 a4 9c be 2f b3 b2 be 47 8a 2f 3d
       0.023883969 -0.3059422 -0.3490233 0.04285648
000020 e1 0f 77 be 97 7f cd be 4b 1c c8 3d 71 34 80 3e
       -0.24127151 -0.40136406 0.097710215 0.2504001
000030 9a b1 4f 3e cb c6 b9 bd 3d d5 de bd a4 c6 e6 3d
       0.20282593 -0.0907112 -0.10880516 0.112683564
000040 3f 83 c0 3e 22 3c ba 3e d8 7f 4e be 3c 5e 6a 3e
       0.37600133 0.36374003 -0.20165956 0.2288751
000050 85 23 99 3e ef a5 9b be 0b 0e a7 be a0 42 4f 3e
       0.29909912 -0.30400035 -0.326279 0.20240259
000060 11 36 5a 3d 6e c0 b7 3d fa 65 b4 3e bf e2 95 be
       0.053274218 0.0897225 0.35234052 -0.29274556
000070 33 97 5f 3c b9 54 8e be 54 58 6a be b0 f6 d2 bd
       0.013646889 -0.27799013 -0.22885257 -0.10300958
000080 32 73 e3 bd 52 8f 87 3d 40 59 12 3e 91 56 10 be
       -0.11105956 0.06619133 0.14291859 -0.14095522
000090 16 e4 5f be 6f ca 32 be bd 89 cd 3e da 6c 4c 3e
       -0.21864352 -0.17460035 0.40144148 0.19963399
0000a0 ba ee fe 3d 7d 81 11 3e bb a3 c1 3e d9 5d ce 3e
       0.12447877 0.14209552 0.3782023 0.40305975
0000b0 02 8f a5 be 08 55 ba be ff bf e1 bd d4 27 58 3e
       -0.3233567 -0.36393 -0.110229485 0.21108943
0000c0 16 17 6b 3e b2 1f e9 bd a5 3f a7 3d a3 a2 98 bb
       0.22958025 -0.113829985 0.08166436 -0.0046580597
0000d0 5f 04 93 be a0 d7 0e 3e 8d c2 20 be ee 7e da bd
       -0.28714272 0.13949442 -0.15699215 -0.10668741
0000e0 8d a0 44 bd c3 40 75 bd 4e 21 b0 3e c8 3f 63 be
       -0.048004676 -0.059876215 0.3440041 -0.221923
0000f0 86 76 fc 3d 23 99 c2 3e 88 2e be 3e b6 cc 85 3c
       0.12327294 0.3800746 0.37144876 0.016332965
000100 28 cc 13 bd ab af 0c be 03 3b a5 3e e6 54 7c 3d
       -0.03608337 -0.13738887 0.32271585 0.061604403
000110 a6 95 ac be 58 91 37 3d c7 b8 11 be ec a2 72 be
       -0.33707923 0.044816345 -0.14230643 -0.23694962
000120 a3 64 11 be a7 41 76 3b 40 34 ef bc 33 d9 56 3e
       -0.14198546 0.0037575753 -0.02919972 0.20981292
000130 39 c9 b6 be 2e 69 74 be e8 64 ab be 48 8a 88 3d
       -0.35700396 -0.23868248 -0.33475423 0.06667
000140 61 e9 62 3e 94 db 86 3e da ed 1e 3e 5f a6 6f bd
       0.2215934 0.263394 0.1552042 -0.058508273
000150 22 d5 88 be 13 2c 96 be 6a 34 b3 3e 9b 63 bd be
       -0.26725107 -0.293305 0.35000926 -0.36990055
000160 f4 a9 59 3e 78 56 41 3e 47 9c ba 3e 33 2a 98 3e
       0.21256238 0.18880641 0.36447355 0.29719695
000170 3c ba 96 be 49 07 7f be e6 73 b8 be f8 62 51 be
       -0.2943896 -0.24905123 -0.36025923 -0.2044791
000180 0c 77 ba bd d2 b5 c4 3e f4 9f 9e be e6 5b 97 3e
       -0.09104738 0.38419968 -0.3098141 0.295623
000190 b5 02 9b be 07 b7 99 3e 7d 09 47 3e 7d 47 8c 3e
       -0.30275503 0.3002245 0.19437213 0.2739829
0001a0 e8 c4 af be 4d 47 73 3e 1c 40 71 3e 1d 04 36 3e
       -0.34329915 0.23757668 0.23559612 0.17775007
0001b0 c8 5a 61 bd ab 36 c2 be e8 04 2f 3e 94 a6 81 be
       -0.055018216 -0.37932333 0.17091715 -0.25322402
0001c0 7e 2b 89 be 4f ac 2c be 84 be ac be e0 29 c3 3d
       -0.26790994 -0.16862606 -0.33739102 0.095294714
0001d0 88 f9 f6 3d 79 b4 cb be 82 8e 8e be 8c 5c 87 3e
       0.12059313 -0.39786127 -0.278431 0.26437795
0001e0 de db bb 3e 0c da 29 be bf 72 14 be 54 5a 9a be
       0.36691183 -0.16587085 -0.14496897 -0.3014704
0001f0 b6 50 5a 3e 35 97 54 3c 45 c2 a7 bd d5 57 49 bd
       0.21319851 0.012975504 -0.08191351 -0.04915603
000200 1c d0 25 3e d3 2b f1 3c 54 f6 86 be 73 b4 f0 bc
       0.16192669 0.029439842 -0.26359808 -0.02938292
000210 45 71 f4 3d 81 da ad be c0 e3 85 3e 4e 6d f4 3d
       0.11935667 -0.33955768 0.26150322 0.11934911
000220 08 04 aa 3e f9 0b 5c be 32 08 98 be 04 ea a3 3d
       0.332062 -0.21488942 -0.29693753 0.08003619
000230 80 f7 c5 bb ba 15 e9 bd 99 4f 60 be 47 67 51 be
       -0.006041467 -0.11381097 -0.21905364 -0.20449553
000240 3b 96 55 be 35 c8 2b bd 2c b1 61 3e 04 ec 7c 3e
       -0.2085809 -0.04193898 0.22040242 0.24699408
000250 05 7d 97 bd ab 5a 86 3e bb 3e 21 be 31 d7 bf 3e
       -0.073968925 0.2624105 -0.15746586 0.37468866
000260 5a a4 a3 3e 70 11 4f be d2 7c a8 3e 26 5c c4 3d
       0.31961328 -0.20221496 0.3290773 0.095878884
000270 16 40 82 be 84 47 15 3e 80 99 bb be 72 de f5 bc
       -0.2543952 0.14578062 -0.3664055 -0.030013297
000280 b1 d5 1e 3e 21 7a 65 be 37 7b 91 be 0e d2 25 be
       0.15511204 -0.2240987 -0.28414318 -0.16193411
000290 cd b3 b5 be c8 22 9d be c7 e8 ca 3e e3 a3 c9 bd
       -0.3548874 -0.30690598 0.3963072 -0.09845712
0002a0 3f 62 b1 be cc c0 6c 3e 6f f4 8c 3e fc 9c 9d be
       -0.34645268 0.23120421 0.27530238 -0.30783832
0002b0 62 0f 58 3e da e2 55 bc 34 4a 59 be e9 cd 67 be
       0.21099618 -0.013054574 -0.21219712 -0.22637142
0002c0 04 4e c1 3e 3f 11 54 bd c8 c1 76 be b8 05 b5 bd
       0.37754834 -0.05177426 -0.24097359 -0.088389814
0002d0 c6 0a ab 3e d3 23 a3 be f6 da c9 3e 96 a1 b3 3e
       0.33406657 -0.3186327 0.39424866 0.35084218
0002e0 47 12 6c bd 1d f7 af be 14 05 cb be bf dd ff bd
       -0.057634618 -0.3436822 -0.39652312 -0.124934666
0002f0 ea 88 16 be 70 97 85 3e a3 02 bb 3e 78 86 17 3e
       -0.14700666 0.260921 0.3652545 0.1479739
000300 84 f2 55 be d6 f3 06 be 78 b4 b0 3d 8b 86 9e be
       -0.20893294 -0.13178954 0.08628172 -0.30962023
000310 78 a3 aa bd 00 dd 63 3b f2 3f 68 3e 18 c1 ae 3e
       -0.083319604 0.0034769177 0.22680643 0.34131694
000320 19 06 8d be 82 5a aa be 2f c0 b1 3e c3 ca dc 3d
       -0.27543715 -0.33272177 0.34716937 0.10780861
000330 c9 e4 99 be a4 e0 b4 be ca 97 b3 be 32 33 88 be
       -0.30057362 -0.35327637 -0.35076743 -0.2660156
000340 a0 78 df bd 08 8b 24 3e 90 fd bf bc ca d7 9b 3d
       -0.10911679 0.16068661 -0.023436338 0.07609518
000350 d3 2a 1c 3e 32 22 87 be f4 d3 26 be 56 1d 6a bd
       0.15250711 -0.26393276 -0.16291791 -0.057156883
000360 db 11 8c 3e d4 fa 08 3e a4 30 ac 3d 62 0e 7a bc
       0.27357373 0.13376933 0.08407715 -0.015262218
000370 eb 5b 0b 3d c4 53 59 be cc b7 f2 bd 7c 3e 87 be
       0.034023207 -0.2122336 -0.11851463 -0.2641486
000380 60 be 1a 3c 3d 81 a6 be 60 70 a3 3c 20 05 6e be
       0.009444803 -0.32520476 0.019951046 -0.23244143
000390 1b 95 9c 3e bf 94 1d be ad 11 b1 bb 8c a9 cf bd
       0.30582508 -0.15388773 -0.0054037184 -0.101397604
0003a0 6a f8 f5 bc e8 49 0b 3e 9c aa 41 be 45 02 c6 be
       -0.03002568 0.13602412 -0.18912739 -0.38673607
0003b0 a0 04 eb bd 1a 25 ae 3e a6 70 e8 bc cd 5c ce 3e
       -0.114754915 0.3401268 -0.028374027 0.40305176
0003c0 e4 2e 9a 3d a9 bc a1 3e d5 8c 69 3e 14 11 07 3e
       0.07528475 0.3158925 0.2280763 0.13190109
0003d0 49 38 87 3e e0 69 03 3e 2e 93 dd bc 9d a5 b5 be
       0.2641013 0.12833357 -0.02704772 -0.35477915
0003e0 d4 17 ad bd 81 de 65 3e 7e 76 26 3e 78 bb af bd
       -0.084518105 0.2244816 0.16256139 -0.08580679
0003f0 f7 f0 8d 3e be 4f 06 be 31 3e 7a 3e c4 21 91 3e
       0.27722904 -0.13116357 0.24437787 0.28346074

bias f4 [500]
000000 24 e5 9b be 76 bf ac 3e 47 14 5a 3c 36 cf 33 3e
       -0.30448258 0.33739823 0.013310499 0.17559513
000010 5a 93 b2 3d 87 8b a5 3e 83 bb 75 bb 13 9f 43 be
       0.08719511 0.32333013 -0.00374958 -0.19103651
000020 0b dc b0 3e d4 e5 28 3d a5 9a b4 be fa 5f 4e be
       0.3454288 0.041234806 -0.35274234 -0.201538
000030 38 52 a6 bd c6 87 c1 be f0 19 14 3e b6 31 90 be
       -0.08121151 -0.377989 0.1446302 -0.28162926
000040 83 8a 8a 3e 72 31 b2 bd 04 8a 9d 3e 68 a4 8d 3d
       0.270588 -0.08700837 0.3076936 0.06916124
000050 c7 cc 85 3e 31 cd bb be 92 62 55 bd ae 95 f9 bd
       0.26132795 -0.36679986 -0.052095957 -0.12186752
000060 ed e1 5d 3e 4b cc b8 bd 68 01 4e 3e 4b 3f 46 bd
       0.21668215 -0.09023341 0.20117724 -0.048400205
000070 c5 2c 49 be 7c 0c c4 be 6b b0 23 3e 5d 9e 05 be
       -0.19645984 -0.38290775 0.15985267 -0.13048692
000080 e0 34 7c bc 3f 45 a4 3d 4e e5 9d be f7 d8 06 be
       -0.015393466 0.0802102 -0.30839008 -0.13168703
000090 d1 cb 86 3d a6 3e a4 3e 0e b7 12 3e 34 4d 42 be
       0.06581844 0.32079047 0.14327642 -0.18974763
0000a0 00 87 98 be 37 cf 93 bd b8 3c eb 3d a0 92 a1 3e
       -0.29790497 -0.072172575 0.114861906 0.31557178
0000b0 b8 5d 90 3d c6 f6 9c 3e ba c1 16 be 4d f0 5d bb
       0.070491254 0.30657023 -0.14722338 -0.0033865154
0000c0 eb 54 a2 3e bd 44 ac bd c7 9e c3 be ad c9 0d 3e
       0.31705412 -0.08411548 -0.38207075 0.13846464
0000d0 f3 ec 92 3e ee 58 33 be 78 8e 7b 3e d0 2e 95 3c
       0.28696403 -0.17514393 0.24566066 0.018210799
0000e0 94 f3 bf be d8 29 fc 3d a4 c8 58 3c 98 2b 7d be
       -0.37490523 0.123126686 0.01323143 -0.24723661
0000f0 0b 4e b3 bc a6 09 b7 bd 54 fe 14 be 67 51 49 3e
       -0.0218878 -0.08937387 -0.14550143 0.19659959
000100 1e 27 9d be 26 0c 83 3e f8 18 b9 be 78 06 28 3d
       -0.30693907 0.25595206 -0.36151862 0.041021794
000110 85 e5 33 be fa 86 00 3e eb 39 6e 3e 72 d1 7c 3e
       -0.17568024 0.1255149 0.23264281 0.24689272
000120 e0 cd 05 3d 9c 8d cf 3e 26 7b 99 be 59 fa 0c be
       0.03266704 0.40537727 -0.29976767 -0.13767375
000130 8b d5 82 bd 1c 37 24 3d e0 ac b2 be 68 ce 90 be
       -0.06388386 0.04009162 -0.34897518 -0.28282475
000140 ab f7 99 3e 8a 65 2e be b5 07 c7 bd 60 ce 04 be
       0.30071768 -0.17030922 -0.09718267 -0.12969351
000150 30 81 a2 3e e0 36 04 3e 55 4f e5 3d 9d 6c 36 be
       0.31739187 0.12911558 0.11196772 -0.1781487
000160 7d e4 b9 3d 84 02 0c be a4 f5 cb bc 21 03 c9 bd
       0.09076784 -0.13672835 -0.024897404 -0.0981505
000170 d2 3b 7f 3e 41 05 af 3d 9f 9d b3 bd ba 30 22 be
       0.24925163 0.08545924 -0.08770298 -0.158389
000180 16 98 0b 3e 57 f6 cb 3e 42 d9 24 be dd d3 74 be
       0.13632235 0.3983638 -0.16098502 -0.23908944
000190 88 be ba bd 00 9d 9c be 91 d5 49 3e 27 36 2c 3e
       -0.09118372 -0.30588531 0.19710375 0.16817532
0001a0 eb 12 ad be e3 78 43 3e 39 87 73 be 0b 4f a1 3e
       -0.33803496 0.19089083 -0.23782052 0.31505617
0001b0 3b 70 95 3e 27 2a 31 3d 48 3e 08 3e 8c 56 1e bd
       0.29187188 0.04325309 0.13305008 -0.038656756
0001c0 59 44 73 3e e2 a1 c9 be a4 fe 90 be e7 d2 83 bd
       0.23756541 -0.3938132 -0.28319275 -0.06436711
0001d0 16 16 02 3e fe d3 c6 bd 06 7b 1d 3e 45 61 85 bd
       0.12703738 -0.09708403 0.15378961 -0.06512693
0001e0 ab 64 41 be 4a 55 7d bd be 5f 83 be 26 4d 98 3e
       -0.18886058 -0.061848916 -0.25658983 0.2974636
0001f0 c1 2b d4 3d 69 85 c7 bd 46 2b 9d be 23 1a 37 3e
       0.10359908 -0.09742243 -0.30697078 0.17881064
000200 87 cd c8 3e ac 01 15 be a2 7f c4 be b9 5e 0a be
       0.39219305 -0.14551419 -0.38378626 -0.13512696
000210 f9 87 cd bd e5 1f ae be e5 5e c8 3e 9f 3d 62 3e
       -0.100357 -0.3400871 0.391349 0.22093819
000220 a4 83 82 3d 19 8e be be 33 da b1 be 44 2e 00 3d
       0.06372765 -0.37217787 -0.34736785 0.031294122
000230 e4 99 91 bd 40 52 d7 bc 04 1c a5 3e 8c f4 81 be
       -0.071094304 -0.026284337 0.32247937 -0.25381887
000240 b7 7f 70 3e 20 cd d2 bc c9 82 8b be 32 3d be 3e
       0.2348622 -0.025732577 -0.2724822 0.37156063
000250 f4 fb 4e 3e 31 0a c6 3e e3 7f e7 bd 48 f4 ba be
       0.202133 0.3867965 -0.11303689 -0.36514497
000260 9e 6c 63 be 7e 4d 2d 3e 86 00 01 3e dc ae 0c 3e
       -0.22209403 0.16924092 0.12597856 0.13738579
000270 6a 69 d3 3d c4 a9 b1 be 36 d9 8b 3e 96 57 75 be
       0.103228405 -0.34699833 0.27314156 -0.23959193
000280 d0 ee c5 3d 5e d7 87 3e 35 77 f8 bc 64 07 a9 3e
       0.096646905 0.265315 -0.03033028 0.3301345
000290 ed 82 a0 bd 38 81 81 3e 73 3d 33 be b6 98 8a 3e
       -0.07837472 0.252939 -0.1750391 0.27069634
0002a0 0e b6 24 be ee 46 27 3d bb 73 a1 be bc 35 b1 be
       -0.16085073 0.04083913 -0.31533608 -0.3461131
0002b0 78 31 6d be 56 62 b8 3e 82 ce 2c be 27 34 c2 bd
       -0.23163402 0.36012524 -0.16875651 -0.094826035
0002c0 b0 08 b8 bd a2 00 a0 be 21 e7 80 be 6a cd 05 3e
       -0.08986032 -0.31250483 -0.25176337 0.1306664
0002d0 6e d2 00 3d 82 f2 39 3b e9 e6 ad bd 59 e8 42 3e
       0.03145068 0.0028373306 -0.08491308 0.19033946
0002e0 da 80 17 be c7 63 17 be 11 16 9c bc 6f 95 b3 3e
       -0.14795247 -0.14784156 -0.01905349 0.35074946
0002f0 3c 75 8e 3d 9d 19 6f 3e b4 61 45 3e 9b ec e1 3c
       0.069559544 0.23349614 0.19275552 0.027578643
000300 6c 6a 50 3e a9 4a e2 3d a1 b2 8b be 9f 7d 2e 3e
       0.20353097 0.110493965 -0.2728472 0.17040108
000310 bb 6a 8d be 48 a4 0c 3e af 37 90 be 74 bf ce 3e
       -0.2762049 0.13734543 -0.28167483 0.40380442
000320 e1 2e 36 3e 5a eb 98 3c d9 fa 73 be 2e d5 ac be
       0.1779132 0.018666912 -0.2382616 -0.33756393
000330 c7 0e 73 3e e6 3f 35 be 58 9c d4 3d 02 fa e1 bd
       0.23736106 -0.17700157 0.10381383 -0.11034013
000340 22 cd 2e be 81 28 83 3e 4a af 92 be 14 3b 77 3e
       -0.1707044 0.2561684 -0.2864936 0.2414363
000350 22 50 c3 3e 26 ab ce 3d 6a b9 1f be e2 ec c5 3e
       0.38147074 0.10091238 -0.15598074 0.3865729
000360 91 a6 cb be 07 d5 c0 3e 24 d4 9d 3d c4 77 a5 be
       -0.39775518 0.37662527 0.07706478 -0.32317936
000370 46 ec fd 3d a9 02 0a be c1 5c b2 3e ac 87 18 3e
       0.12398581 -0.13477577 0.3483639 0.14895505
000380 c9 51 ae bc eb fd 69 be 59 cd cb be 45 3f a6 3e
       -0.021279233 -0.22850768 -0.39805105 0.32470146
000390 fa 52 79 be 65 e0 47 3e 41 c3 9a 3e 92 a9 26 be
       -0.2434806 0.19519193 0.30227092 -0.16275623
0003a0 18 03 c0 be 28 d6 c2 bd 14 77 7f be 7b c9 5e 3e
       -0.3750236 -0.09513503 -0.24947768 0.21756546
0003b0 8a 12 d1 3c f3 5e 52 3d a3 20 56 be f5 70 7a be
       0.025521535 0.051360082 -0.20910887 -0.24457152
0003c0 56 86 9a bd 70 06 38 be e9 4d 1a bb a9 76 d7 bd
       -0.07545154 -0.17971206 -0.0023544973 -0.105206795
0003d0 b5 72 91 3e 82 9e 24 3e af 43 ca be f8 d8 65 be
       0.28407827 0.16076091 -0.39504763 -0.22446048
0003e0 48 45 50 3e d7 31 b7 3e c1 26 0f 3e 89 78 36 be
       0.20338929 0.35780212 0.13979627 -0.17819418
0003f0 4e 56 77 be 2f 11 be bc 19 d2 2b 3e 09 16 7d be
       -0.24154016 -0.023201553 0.16779365 -0.24715437

weight f4 [128, 500]
000000 11 00 24 bd a1 50 ca 3c 74 65 38 bd f2 e1 fc bc
       -0.040039126 0.02469665 -0.04501863 -0.030869458
000010 74 45 b0 3c 55 f3 29 3d 6f a9 3a ba 8a 07 e5 bc
       0.021517493 0.041491825 -0.00071205845 -0.027957696
000020 1d e0 d3 bb cf eb 64 bc 9c 91 08 bd 8e 41 05 bd
       -0.0064659254 -0.013972237 -0.03334199 -0.03253322
000030 3c a0 1f 3c f2 27 0d bd 90 d5 3a 3c bc 3d 02 bd
       0.009742793 -0.034461923 0.011403456 -0.031797156
000040 1d 1e d1 3c 5d 12 5a 3b 93 cf 1a 3d f1 a2 31 3d
       0.025527054 0.0033275106 0.037795614 0.043368284
000050 3a 5e 4d bc be dc 29 bd 7b 2d 1b bd 38 cd ea 3b
       -0.012534672 -0.04147028 -0.03788517 0.0071655773
000060 33 f7 20 bd 63 08 2f bd e3 2e 21 3c ed da e5 3b
       -0.039298248 -0.042732608 0.009837839 0.0070146234
000070 7e 1a 5e bc f7 91 0c bd 3f d7 da 3b 4e 2c 61 3c
       -0.013556121 -0.03431889 0.0066784914 0.013743473
000080 20 57 53 3c 5c c8 33 3d 7a 41 e5 3c fe 1e 0f bd
       0.01289919 0.04389225 0.027985323 -0.034941666
000090 80 21 1f bd 04 44 48 bc 96 da ff bc 42 7c 05 3c
       -0.038850307 -0.012223247 -0.03123216 0.008147301
0000a0 8a fe 02 3d 8c 27 da 3c 00 1b 24 bc 54 23 05 3d
       0.03198103 0.026630186 -0.010016203 0.032504395
0000b0 54 f0 b7 bc 1a 70 86 bb 23 cf c2 bc 57 e5 08 bd
       -0.022453465 -0.004102719 -0.023780411 -0.03342184
0000c0 f9 5d 14 bc 42 c3 e4 bc 74 80 b7 3c fa 48 26 3c
       -0.009055608 -0.027925137 0.022400118 0.010149235
0000d0 15 a5 ff b9 a8 05 13 3d 0c 97 12 3d b8 01 32 bc
       -0.00048760386 0.035894066 0.03578858 -0.010864668
0000e0 01 b1 eb 3a 70 e1 0b bd b9 86 ba 3c 4d 39 a4 ba
       0.0017981828 -0.03415054 0.022769319 -0.0012529284
0000f0 b8 c5 19 3d 09 b8 20 bd d4 22 2d 3c bc fe 2e bc
       0.037542075 -0.03923801 0.010567386 -0.010680851
000100 c2 26 e5 3c d0 21 40 bc 94 b7 35 bc 61 a6 e2 3c
       0.027972583 -0.0117268115 -0.011091132 0.027667226
000110 aa 0d 8b 3c 72 3f de 3c a6 6d 21 bc 2c 10 56 bc
       0.016974289 0.027129862 -0.009852802 -0.013065379
000120 a6 03 d9 3c f7 b5 87 3c cf 61 31 3c a2 14 18 bd
       0.026490998 0.01656626 0.010826542 -0.037129052
000130 04 30 6e 3b 38 4d f1 3c 22 64 28 bd 80 91 2b 3b
       0.0036344538 0.029455766 -0.04111112 0.0026179254
000140 da 2c 07 bd 10 9c 2f 3c 09 3f 13 bb b7 16 20 3d
       -0.03300176 0.010718361 -0.0022467992 0.039084163
000150 fb b2 80 3c b1 9f c1 bc 56 67 36 bb 90 af 0c bd
       0.015710345 -0.023635717 -0.002783259 -0.034347117
000160 eb 1e 18 3c c4 0d eb b9 34 bf 8f bc 9e 87 db 3c
       0.009284715 -0.0004483295 -0.017547227 0.026798066
000170 bc 83 c2 3c 6d 22 6e bc b2 e8 ff bc 39 6d 27 bd
       0.023744456 -0.014534575 -0.031238887 -0.040875647
000180 cf f0 8e 3c 69 42 a7 3b 5f 93 a5 3c ca 06 28 bd
       0.01744881 0.0051043523 0.020211874 -0.0410221
000190 1d 90 53 bc 90 e0 09 bc e3 f9 7f ba 25 ca bd 3c
       -0.012912777 -0.008415356 -0.0009764714 0.02316768
0001a0 88 51 33 bd 10 cf 32 bb ca 87 ce 3b a9 9f 2c bd
       -0.043778926 -0.0027284063 0.0063028084 -0.04214445
0001b0 a9 3a 3a bd 1c 5f 82 3c f5 69 0a 3d 20 d9 fc 3b
       -0.0454661 0.015914492 0.033792455 0.007716313
0001c0 78 55 21 3c ff a0 2a 3d 41 fb c6 3c 23 1b b9 bc
       0.0098470375 0.041657444 0.02428973 -0.022595948
0001d0 7e 42 9d 3b 63 66 32 3b cc da f6 3b 45 af 98 3c
       0.0047991863 0.0027221672 0.007533407 0.018638263
0001e0 0b 83 35 bc da 6d 28 3d 1a 19 18 3d 84 fd a1 bc
       -0.011078606 0.041120388 0.037133314 -0.019774206
0001f0 53 72 2f bd 5a 2a 62 3b 66 91 1f 3d 64 78 f5 3c
       -0.042833637 0.0034510107 0.038957022 0.029964633
000200 8e 11 41 3a 23 28 03 3d 04 be 2a bc 22 5c cd bc
       0.00073649816 0.0320207 -0.01042128 -0.025068346
000210 1d ad 2e bd 96 63 00 3c 18 e5 bb bc 34 bd 17 3d
       -0.042645562 0.007836243 -0.022936389 0.037045673
000220 a7 43 84 bc 54 73 8e bc 4a bf a3 3c 50 47 13 bd
       -0.01614554 -0.017388977 0.019988675 -0.03595668
000230 35 7a 32 bd 74 6b ef 3c 61 d2 84 bb 78 e7 49 bc
       -0.043573577 0.029226042 -0.0040533994 -0.012323253
000240 fd 62 18 3d 1d f7 8e 39 fd b1 9e 3c d1 9b 23 3b
       0.037203778 0.00027268464 0.01937198 0.00249647
000250 62 6d b3 3c 4e ce c5 bb d2 82 2b bb c0 28 7d 3b
       0.021902744 -0.0060365563 -0.0026170504 0.0038629025
000260 60 8b 0b bd 52 48 f6 3c 36 49 85 bc 58 77 60 bc
       -0.034068465 0.030063782 -0.016270261 -0.013700329
000270 d8 64 b9 bc 2d bf 26 bd a8 cd 45 bc 51 25 93 3b
       -0.022631094 -0.040709663 -0.012072958 0.0044905324
000280 30 db 24 bd aa 91 94 3c f6 f0 07 3c 4c 3a 4b 3c
       -0.040248096 0.018135864 0.008297196 0.012404036
000290 4a a0 02 bc ec 9a c4 bc 77 11 64 bc c8 41 ca bb
       -0.007972786 -0.023999654 -0.01392018 -0.0061723925
0002a0 ba 8a b6 bc c4 33 29 3c 21 02 32 bd 51 74 29 bd
       -0.022282947 0.010327283 -0.04345906 -0.041370694
0002b0 50 ae 3e bb a7 09 24 3d 3c 3c 29 bd a9 13 0f bc
       -0.0029095598 0.040048268 -0.04131721 -0.008732715
0002c0 bf a8 6b 3c 05 91 e9 bc ab b4 ae 3c f5 7e 39 bc
       0.014383494 -0.028511534 0.021326384 -0.011321773
0002d0 55 f8 db bc 4e f9 c0 bc 47 a0 01 bd c3 31 7d 3c
       -0.026851812 -0.023556378 -0.031646993 0.015453759
0002e0 d8 4f 6f 3c 8a ca 0d bd e7 9d a5 3c 35 23 14 3d
       0.014606439 -0.034616984 0.020216895 0.03616639
0002f0 02 76 e4 bc 9d 23 99 3c 66 0d 65 bc f8 e1 8e 3a
       -0.027888302 0.01869374 -0.013980245 0.0010901084
000300 b8 5d 9c bb 6c 2f 04 bd 4e 74 b3 3c a3 63 cc bc
       -0.0047719143 -0.032271788 0.021906044 -0.024949854
000310 2e f5 02 bd e9 12 8f 3b 7d b2 e5 bb 00 81 51 bc
       -0.031972103 0.004366268 -0.007009803 -0.012787104
000320 14 37 e5 bc e2 74 de 3c d3 79 c7 bc f4 62 15 bc
       -0.027980365 0.027155343 -0.024350083 -0.009117831
000330 cc ff a0 bc 9a 0a 98 bc 0f bf a2 bc eb 82 e2 3c
       -0.019653223 -0.018559743 -0.019866494 0.027650317
000340 c4 ba 10 bc 12 81 0d bc b3 f1 2b 3b 10 8c 4c bb
       -0.008833591 -0.00863673 0.0026236593 -0.0031211413
000350 4c f1 11 3c 41 18 2a 3d 70 1b 4a 3c ec 8a 31 bd
       0.008907627 0.041527037 0.012335643 -0.043345377
000360 80 8c 9a 3b 23 e8 1e 3c 30 47 86 3c 01 9a 0e 3d
       0.004716456 0.0096989 0.016391367 0.03481484
000370 17 f1 8f 3a 17 29 eb bc 3f 6c b2 3c 75 76 38 bc
       0.0010981885 -0.028706117 0.021780131 -0.011258711
000380 16 cb 57 bc 97 18 34 bd 4b d3 04 bc 30 b9 b4 3c
       -0.013170978 -0.043968763 -0.008107017 0.02206096
000390 30 ff 69 bc 18 0d 3d bc e4 b1 53 3b 28 ff ef bc
       -0.014282033 -0.011538766 0.0032302076 -0.029296473
0003a0 c7 f9 6d 3c 47 d8 49 3b 3e 9b 07 bd b5 58 09 3d
       0.014524884 0.0030799077 -0.033107035 0.033531863
0003b0 fd 83 12 bd 2c 75 17 bc fd 54 06 bd 2e ee a3 3b
       -0.035770405 -0.009244245 -0.032795895 0.0050027585
0003c0 29 a8 10 3d ca b2 0c bd e7 6c 75 3b 63 e6 9f 3c
       0.03531662 -0.034350194 0.0037448944 0.019519037
0003d0 98 c5 94 bb ac 7e 83 3b be d5 63 bc f1 48 0c 3c
       -0.0045401566 0.004012903 -0.013905941 0.008562312
0003e0 b2 c8 10 bd f8 a2 06 bb 93 9a bb bc 07 e6 73 3b
       -0.035347648 -0.0020543914 -0.022900855 0.0037215964
0003f0 92 d8 e6 3c aa b5 82 3c 72 6b 22 bd 9a cf 14 3d
       0.02817944 0.015955765 -0.03965325 0.036330797

bias f4 [128]
000000 e6 6f 03 3d c2 02 9b 3c 88 ec 28 3d 82 e4 27 3d
       0.032089137 0.018922213 0.0412412 0.040989406
000010 0c 53 5c 3b e3 a1 d0 3c 76 57 e7 bc 5e 10 65 bb
       0.0033618836 0.025467819 -0.028239947 -0.0034952383
000020 54 1c 7b bc fe 5e c0 bc 0d b9 0a bd f4 d0 86 bc
       -0.015326578 -0.023482796 -0.033867884 -0.016457058
000030 79 47 18 3d 57 e4 1d bd 2f 83 1a 3c 74 49 26 bd
       0.037177537 -0.03854784 0.009430691 -0.040597394
000040 da fd 8e bc e7 e6 f0 bc 87 1f 32 bd 88 50 2c 3d
       -0.01745503 -0.029406978 -0.043487098 0.042068988
000050 57 c1 91 3c e1 d8 8b bb 64 69 28 3c 04 36 23 bd
       0.017792387 -0.0042677973 0.010279033 -0.039846435
000060 99 52 11 bd fe 58 99 3b 5b 95 13 3d 06 8a 11 3d
       -0.035479162 0.004679798 0.03603111 0.03553202
000070 75 f2 12 bd 7f 5d 4f bc 53 12 07 bd 32 d4 0b 3d
       -0.035875756 -0.012656569 -0.03297646 0.034137912
000080 56 fa 1b bd 82 ea 67 bc e4 28 c3 bc e1 e3 1c bc
       -0.038080536 -0.014155032 -0.02382321 -0.009575815
000090 e4 a6 e3 ba bc 20 03 3d 09 8c 2f 3d 72 00 a1 bc
       -0.0017368463 0.03201364 0.042858157 -0.019653533
0000a0 9e 61 91 ba 1d 13 cf 3c 29 b3 40 bc 9e 6b 9d 3c
       -0.0011091714 0.025277669 -0.011761465 0.019216355
0000b0 95 98 1c bd 2b 96 40 39 02 7e 00 bd da 78 47 bc
       -0.03823145 0.00018366489 -0.03137017 -0.012174809
0000c0 8c 36 39 3b dc ac f8 3b d6 5f af 3c 70 3e 8b 3b
       0.0028261272 0.007588966 0.021408003 0.0042493865
0000d0 6a 66 ec bb 59 8c 2f 3d 18 c0 b9 ba bd c5 a1 bc
       -0.007214357 0.042858455 -0.0014171628 -0.01974761
0000e0 84 69 99 3c 0f f4 33 bc 17 8b 7b 3c 0e c5 fd bc
       0.018727072 -0.010983481 0.015352986 -0.030977752
0000f0 0c d9 8d 3b 56 c6 76 3b 60 af 9d bc 96 32 e6 3c
       0.0043288525 0.0037654839 -0.019248664 0.028100293
000100 89 bd 44 bc 94 29 2e ba e1 bd fb 3b fd 2d 02 3d
       -0.012008079 -0.0006643769 0.0076825474 0.03178214
000110 ec 72 68 3c b8 18 15 b9 b2 0a 7b 3a 75 e7 4d ba
       0.014187556 -0.00014218956 0.0009576484 -0.0007854619
000120 b6 59 f8 3a a4 8a f5 3c 05 7d 33 3d 7b f8 03 3d
       0.0018947634 0.029973336 0.0438204 0.03221939
000130 78 ae e4 3c 59 ee 58 bc ef d0 c1 bc 96 8f 82 bc
       0.027915224 -0.01324042 -0.023659198 -0.015937608
000140 e9 84 19 bd e2 0b c7 3b c8 92 ea bc 53 8a ef 3c
       -0.03748027 0.0060744146 -0.028634444 0.029240763
000150 cb 12 06 3c 11 74 3f bb 6b e9 1c 3d 0d d8 09 bc
       0.0081831915 -0.0029213468 0.038308542 -0.008413327
000160 9e 5a e6 3c 1c 9d aa bc a8 b7 04 3d 6b 6c 36 3d
       0.028119382 -0.020826869 0.03240171 0.04453699
000170 95 b5 2f bd 25 25 9d ba a7 35 41 bd 9e ba d0 3c
       -0.04289778 -0.0011989219 -0.047170307 0.025479611
000180 8d 22 f8 3c df 8a 20 3d 68 94 ae bc b3 5b cd bc
       0.030289913 0.039194938 -0.021311 -0.02506814
000190 b7 90 2e 3d 62 58 ec 3c 15 c7 fc bc 62 92 11 bd
       0.04261848 0.028850738 -0.030856648 -0.035539992
0001a0 77 0d 0f bd 7b 30 12 3d 2b 30 7d bc 83 e1 22 bd
       -0.03492495 0.035690766 -0.015453379 -0.039765846
0001b0 23 27 31 3d 6a c6 ba 3c f1 11 35 3d 7a c4 0b 3d
       0.043250214 0.02279969 0.044206563 0.03412292
0001c0 e7 7c 1f bd 34 ad 00 bd 62 d2 e9 3b 9d e8 91 bc
       -0.038937476 -0.03141518 0.0071356753 -0.017811114
0001d0 03 e6 d7 3a e9 6e 89 3c 5d f6 c2 bc 08 b6 93 bc
       0.0016471747 0.016776519 -0.023799116 -0.018031135
0001e0 37 6a 11 3d de a1 f8 3b e5 6f fd bc c0 de 44 3a
       0.035501685 0.0075876554 -0.030937145 0.0007509999
0001f0 f6 97 d3 3c b2 0e 07 3d 32 71 27 3d 1f 15 2f bc
       0.025829297 0.032973 0.040879436 -0.010686188

weight f4 [4, 128]
000000 0e 15 69 bc e2 9c 48 3d c7 45 a7 bc 3c d1 f6 3c
       -0.014226211 0.04897774 -0.020419015 0.030129068
000010 10 75 c4 bc 5d aa 28 bd f5 90 50 3d 10 5b b6 3d
       -0.023981601 -0.041178096 0.05091949 0.089040875
000020 c4 24 a1 bd 0a c0 5b 3d 63 9b a6 3d 00 e8 37 3d
       -0.078683406 0.05364994 0.081351064 0.044898987
000030 a1 6b d0 bc 68 71 59 3d eb 9f 65 bd fe e3 1e 3d
       -0.025441946 0.05308667 -0.056060713 0.03879165
000040 cf f8 dd bc 31 43 81 3c 80 bb 80 3c e2 18 66 bd
       -0.02709618 0.01577911 0.015714407 -0.056176074
000050 69 36 87 3d f3 db fb 3c 09 ac 4c bd 67 9d a2 bd
       0.06602175 0.030744528 -0.049968753 -0.07940178
000060 38 bf 85 bd 90 cf 06 bd 02 13 b8 3c dc d2 d2 bc
       -0.06530613 -0.03291279 0.022470001 -0.025735311
000070 c8 4d 49 3c e6 1e 76 bd 1f 8b 3b bd ed 0f 1a 3d
       0.012286611 -0.06008806 -0.045786973 0.037612844
000080 43 ad 09 bd fe c3 7e bd 84 62 98 3d 02 03 82 bd
       -0.0336125 -0.06219863 0.07440665 -0.0634823
000090 c7 90 3a bd 56 f9 6c 3d 20 b9 e9 3c 33 33 6f 39
       -0.045548227 0.057854973 0.028530657 0.0002281189
0000a0 e6 da b9 ba c4 d5 a1 3b 82 da 87 bc 33 0c 89 3d
       -0.0014179617 0.004938813 -0.016583685 0.0669178
0000b0 0b 54 38 3d e1 90 3e bc ef 55 2d bd 9a ff 63 bc
       0.045002025 -0.0116312215 -0.04231828 -0.013915921
0000c0 30 bf fd 3c b6 cc 45 bb fa 8d a7 bd 17 29 fc 3a
       0.030974954 -0.0030181832 -0.08181377 0.001923832
0000d0 2c 2f 5a bd 91 de 29 bd 3f f2 8f bd d8 c5 47 bd
       -0.053267643 -0.04147202 -0.07028627 -0.048772663
0000e0 9e 85 71 bd 4f 4b 83 3d bc fb 91 3d c5 37 56 bd
       -0.058965318 0.06410848 0.07128093 -0.05229928
0000f0 de bb 77 3c 12 04 12 bd 54 68 91 bd 45 f0 34 3d
       0.015120475 -0.035648413 -0.07099977 0.04417445
000100 8a b6 f2 3c ed c5 fc 3b 81 4f 61 bc ff f0 ab 3d
       0.029628057 0.0077140243 -0.013751865 0.08395576
000110 c2 0a 2c bd 7a 0f 9a bd 94 f3 9a bd 66 a7 94 bd
       -0.042002447 -0.07522483 -0.0756599 -0.07258491
000120 80 38 8c bd 18 32 93 3d f0 03 3a 3d 48 c4 4a 3c
       -0.06846714 0.07187289 0.04541391 0.012375899
000130 91 7f d9 38 1c 0c 4d 3d f6 4d a6 3d 78 23 93 bd
       0.000103711274 0.050060377 0.081203386 -0.071844995
000140 f5 c6 4e bc f7 af b1 3d 25 46 82 3d 46 f1 01 bd
       -0.012620677 0.08676141 0.06361035 -0.031724237
000150 cc fa 31 3d 0b 54 99 3d f3 a9 b3 bd 76 a9 cf bc
       0.04345207 0.07486733 -0.087726496 -0.02534936
000160 06 bc ba bc 6a 46 23 bd 3b 22 1b bd 69 a3 81 bd
       -0.022794735 -0.039862074 -0.03787444 -0.06329996
000170 16 28 a4 bd 2b c3 18 3d 9e 6a 13 bd f1 e0 b6 3d
       -0.08015458 0.0372955 -0.03599035 0.08929623
000180 8a 9c a7 bd 66 31 a1 3d fe 1e 54 bd 05 ea 1f bd
       -0.08184154 0.0787075 -0.05178737 -0.039041538
000190 16 56 5b 3d 0c 82 64 3b e3 76 a1 bd 38 e8 2a bd
       0.053548895 0.0034867553 -0.07884004 -0.041725367
0001a0 56 f3 6a bd 34 93 80 bd 8a b4 95 3d 43 2a 41 bd
       -0.05736097 -0.06278077 0.07309826 -0.047159445
0001b0 53 a7 37 bd 11 37 42 3c c0 6a b9 bc 99 4a 7c 3d
       -0.044837307 0.011853949 -0.02263391 0.06159458
0001c0 61 ae 44 bd 4d 4a 5b bd a4 f2 48 bd b3 80 da bc
       -0.048017863 -0.053537656 -0.049059525 -0.026672697
0001d0 92 19 92 3d b7 a8 38 bc b2 89 a0 bd 5f e5 e0 3c
       0.071337834 -0.0112706935 -0.07838763 0.027453123
0001e0 c8 56 54 3c 97 cb a7 bd 1e d2 e0 3c d8 8c 95 bc
       0.012960143 -0.081931286 0.027443942 -0.018255636
0001f0 05 d7 fa bc 50 3f 86 bd 5d 9f ca 3c 38 23 4d 3d
       -0.030620107 -0.06555045 0.024734193 0.050082415
000200 bc aa ad bd 9a 47 52 3d 09 28 59 3d 95 fa 57 3d
       -0.084798306 0.051337816 0.053016696 0.052729208
000210 df 33 5a 3d c8 c1 0b ba 31 66 96 bd 1c 48 4c bd
       0.053272124 -0.0005331305 -0.0734371 -0.049873456
000220 d1 13 b0 bd e5 5d af bc 28 d0 9d 3d 20 95 87 bd
       -0.0859753 -0.021407077 0.07705718 -0.0662024
000230 ee 35 8c bc e3 35 80 bd 40 ce 91 bd 44 f7 c7 bc
       -0.01711556 -0.06260278 -0.07119417 -0.024409898
000240 95 3a 96 3d 89 92 a9 bd 5d 62 86 3c b1 4c 9b bd
       0.073353924 -0.082799025 0.016404325 -0.07582987
000250 29 f2 9e bd 25 87 5f 3b 5f 94 ac bd a0 65 70 3d
       -0.07761032 0.0034107652 -0.08426737 0.058690667
000260 49 10 68 bd fe 2f 57 bc 65 32 cc 3c b3 af 40 bd
       -0.056656156 -0.013134001 0.024926374 -0.04704256
000270 8f 4f 2f bd ed 07 a1 bc 5b a7 85 3d 01 05 cc bc
       -0.042800482 -0.0196571 0.06526061 -0.02490473
000280 46 6d 15 3d f9 b3 e2 3c a3 e4 08 3c 2f 07 a0 bd
       0.036481164 0.027673708 0.0083552925 -0.0781387
000290 de 65 0c 3c 45 32 a8 bd 00 aa 58 3a 8a a1 3b bd
       0.008569209 -0.08212713 0.0008265078 -0.045808353
0002a0 a2 ff 36 bd a5 4a 80 bd 72 0e a1 3d 79 50 a6 bd
       -0.044677384 -0.06264237 0.07864083 -0.08120818
0002b0 0e f6 e9 bc 39 b1 75 3d eb f0 38 bd 96 fe 02 bd
       -0.02855971 0.059983466 -0.045151632 -0.031981073
0002c0 fa 30 a0 bd e0 c1 91 ba ef 8d 7e 3d 46 47 dc 3c
       -0.078218415 -0.0011120401 0.062147077 0.026889455
0002d0 a8 94 8f bd 9e 10 34 bd 25 41 73 3d 45 18 06 bd
       -0.07010776 -0.04396116 0.0593883 -0.03273799
0002e0 2c 4e 97 3c 81 ff 2f 3d ec fa 42 3d 4e 78 01 3d
       0.018469892 0.042968277 0.04760258 0.031608872
0002f0 69 99 aa 3c 4b 11 ae bc 79 0e a8 3d 70 0b 33 3d
       0.020825105 -0.02124848 0.082058854 0.04371208
000300 05 4d 38 3d 14 1c b1 3d 6b 85 53 3c d8 c0 1b bd
       0.044995327 0.086479336 0.012910227 -0.038025707
000310 50 54 67 3c e5 de 47 bd d3 b5 93 bd e5 d7 89 3d
       0.014119223 -0.048796553 -0.072124146 0.06730632
000320 ff 2a 53 3d 03 67 4f bd 2c dc ae bd d0 46 15 3d
       0.051554676 -0.05063535 -0.08538088 0.036444485
000330 16 d2 ab 3c 1d 0e f9 bc f4 cd ac bd e7 8c 4a 3d
       0.0209742 -0.030402238 -0.0843772 0.04945078
000340 cd 39 a0 3d 9a 18 6d 3c d7 37 c3 bb fb 06 56 bd
       0.078235246 0.0144711975 -0.0059575844 -0.05225275
000350 37 be 85 bd 3e 57 62 3d a5 b8 99 3d 3c 56 16 3d
       -0.06530421 0.055258982 0.07505921 0.036703333
000360 eb fc 66 3d 4e 6d 98 3d 63 6f 62 bd e2 34 20 3d
       0.056393545 0.07442723 -0.055282008 0.039112933
000370 a8 70 b6 3c bb b5 08 3d 6b 41 c7 bc 05 78 37 3d
       0.022270516 0.033376437 -0.024323186 0.044792194
000380 34 84 e8 bc dd 01 ab 3b 56 ab a4 bd a8 02 ec bc
       -0.028383352 0.005218728 -0.08040492 -0.02880986
000390 06 9d 21 3d c2 17 3f bc 6b 8d 2b bd 91 c6 87 3d
       0.03945639 -0.011663379 -0.041882914 0.066296704
0003a0 24 4b 53 3c 0c 11 8d bd cb bb ba 3c e4 bd f1 bc
       0.012896333 -0.06888017 0.022794625 -0.029509492
0003b0 55 eb 71 3d 9c 81 ee bc 59 41 13 3d 47 07 40 3d
       0.05906232 -0.029114537 0.035950992 0.04688194
0003c0 24 ad 8c bc 2e 04 58 bd a2 16 94 bc df 6a a6 bd
       -0.017172404 -0.05273836 -0.018077198 -0.08125853
0003d0 26 20 ab 3d 57 9a 91 bc 16 f1 44 3d d3 0d 72 3d
       0.08355741 -0.01777379 0.04808148 0.059095215
0003e0 c5 d1 95 3d 69 a9 60 bd 6b ab 33 3d 06 9a 3b 3d
       0.07315401 -0.054849062 0.04386465 0.045801185
0003f0 b2 b1 89 bd 87 74 4d 3d 78 31 af 3b 37 6b e7 3c
       -0.06723346 0.050159957 0.0053464733 0.028249366

bias f4 [4]
000000 cc 5f 79 3d a2 0a 24 bd 02 95 61 3d 57 85 96 bc
       0.060882375 -0.040049203 0.055073746 -0.018374128
