models/seller.ckpt (torch_old, 277306 bytes, 6 tensors)

weight f4 [500, 6]
00000000: 4de9 c4be 210e a4bd e0ca 48be c4c5 debd
00000010: 75a9 b8be 75c0 273e c2f0 bbbe ab21 dcbc
00000020: 6851 113e bfdd 0abe 6a6a 6c3e 7390 523d
00000030: d0c6 653e ea58 863e 7fa6 38be ee05 183e
00000040: bea5 34be 274f 033e 37cd 57be dad8 433e
00000050: 79ae a93d acd5 20be d044 4bbe 6bc1 db3d
00000060: e602 c43e 3f19 4a3e b054 1cbd 481e 97bc
00000070: 5170 6f3e 5896 90be bc6f 0c3e cdea 08be
00000080: 9e95 723e e2bd 13be cf8a b03c fd2b 0e3e
00000090: b674 903e 9473 6fbd 6050 bf3e 570e b0be
000000a0: 34d4 91bd 16ac cfbe 561f 103d 6a7a f03d
000000b0: d7e2 27be f867 2f3e 078a 84bd b0f0 b4be
000000c0: 2eff 9f3e 5451 803e e1ef 513e 681c a63e
000000d0: df8f 183e e202 5d3e cc84 ad3e ae71 a8bd
000000e0: 6502 a3be 1e95 4dbe 8f08 5fbd 48ec 37bd
000000f0: 1129 0dbb be23 703e 9b8c 063e 9645 9abe
00000100: 81b6 f9bd afd8 c3bd 4488 7e3e 08b1 17be
00000110: cf9a 2ebe df2b 86bd 6aa2 d4bd 843c cebd
00000120: 5350 cdbe 563b b93e 2947 5e3e 4a2d 47be
00000130: 1318 83be 4bd7 5a3c 623f 6b3e 0d63 97be
00000140: 3bce 1fbe 7c69 2c3e 9555 88be 3441 43bd
00000150: 0e38 9dbe 2f61 c23e 0f9f 613e e2c3 c0be
00000160: 8136 66be fa0a 153e 79a4 c33c 5ea5 e13d
00000170: 6c5e aabe c63c 5ebe b96d 3f3e a954 9ebe
00000180: 31d3 b1bd 9155 363e 05bf 573e c88a c53c
00000190: d1c1 ef3d fc86 383e dec6 3ebd 2b56 e2bd
000001a0: a840 a03e 9658 cc3e d1c5 423e 689e 35be
000001b0: ddbf b5be 5a46 cebe 0016 393b b039 21be
000001c0: 9afd d1bd e512 6bbd 00b9 c33e 5f22 c43e
000001d0: 472e 2abd 5a63 01be 1dd9 463e ed25 14bd
000001e0: 9359 c3be f56d 133e f61b c83e 9421 a4be
000001f0: e3ef abbd ead2 b83d 4e4f aabe ef05 b3be
00000200: f40a 9c3e bf2f 13be e89b 733e a75f 153d
00000210: 9379 ce3d 66be 8abe c197 b0bd e86d 8a3e
00000220: 9ee3 403e 4148 efbd a6d4 4c3d 07d5 9f3e
00000230: 2a5a b7be 1410 863e 0f21 fcbd 5dd8 aabd
00000240: 3a65 453e 7066 aebe 5615 81bd 1c01 c73e
00000250: 8f06 153e 8c17 1cbe cb32 b5bd 4631 a53e
00000260: 0456 1e3e 3ffe 8d3e df2c 86be 314c f23d
00000270: 04d6 9b3d 64a3 983d a2a4 c33e 48c0 6a3e
00000280: 83b1 913e 6b2f 3b3e b939 2f3e e63f 92bd
00000290: 6dab b8be 4db9 b0be e449 82be 4a6b 87be
000002a0: b5ca 473e 8608 043e 1769 e9bd 2af1 9dbe
000002b0: 18f8 ce3e f79b 9e3e c1ed 4b3e 2387 d13e
000002c0: 4c8c 5abe 9d5c 69be 55d1 6fbe 850e 72bc
000002d0: bba4 b7be 3451 a63e c585 413c ede9 513e
000002e0: 7ede 63be adfd 25bd 44ba 563d 571a e7bd
000002f0: 6d19 c53e 44bd 40be 938f 003e 4417 8ebe
00000300: a6bd 41bd 921a dcbd 910e 353e f964 923e
00000310: 811b cd3d cd30 15bd b364 d1bd 5a19 a53e
00000320: 768f c1bd c2fd 973e 3dde 37be 0e97 ad3e
00000330: 413d cf3e 5d70 8e3e 0738 6e3e 08f1 193e
00000340: b415 4fbe 54c9 3c3b c1c4 0d3e 8e83 debd
00000350: 0613 923d 59da 723e 1998 c2be d45f bfbe
00000360: a62a 7cbe bb62 453d f1cc 9cbd 682c b03d
00000370: cdd0 cabd 405b 89be 0128 613d 29f9 8d3e
00000380: 304d 7abe 819b b73e b558 cf3d 9481 ce3e
00000390: f3f7 bfbe e457 c8be fcd3 0d3e 2afc c1be
000003a0: f5a0 abbe b889 543e cea6 4d3e d51b bdbe
000003b0: 5c7b 973e bd64 9dbd ae86 9c3e 5ae7 72be
000003c0: fc09 c7be fcc3 8abe 1c9e 81bd f0d4 cfbe
000003d0: 38d6 e8bc bdb8 50be 9750 b9bd c009 543b
000003e0: c0b3 bb3c 64f5 cdbe 258f 593e 0443 7fbe
000003f0: 00b4 7e3e 8a6d bf3e 9c58 0bbe b6b0 3b3d
-0.38459244 -0.080105074 -0.1960864 -0.108775645 -0.36066785 0.1638201 -0.3670712 -0.026871523
0.1419121 -0.13561152 0.23087469 0.05140729 0.22439122 0.2623971 -0.18032263 0.14846012
-0.1764135 0.12823163 -0.21074377 0.19125691 0.08285231 -0.1570651 -0.19850469 0.10730251
0.3828346 0.19736193 -0.0381667 -0.018447056 0.23382689 -0.28239703 0.13714498 -0.1337082
0.23689887 -0.14427903 0.021550564 0.13883968 0.28214043 -0.058459833 0.3736601 -0.3438594
-0.07120553 -0.4056098 0.035186134 0.11742099 -0.16395126 0.17129505 -0.06471639 -0.3533988
0.31249374 0.25062048 0.20501663 0.32443547 0.14898632 0.21583131 0.33890378 -0.08224808
-0.31837764 -0.20076415 -0.05445152 -0.04490307 -0.002153937 0.23451135 0.13139574 -0.30131215
-0.12193013 -0.095628135 0.24856669 -0.14813626 -0.17051242 -0.065513365 -0.103825405 -0.10070136
-0.40100345 0.36178082 0.21706833 -0.1945087 -0.25604305 0.013356994 0.22973397 -0.29567757
-0.15606014 0.16837114 -0.26627794 -0.047669604 -0.3070683 0.3796477 0.22033332 -0.37649447
-0.22481729 0.14554968 0.023882138 0.110178694 -0.33275163 -0.2170287 0.186942 -0.30923966
-0.0868286 0.17806078 0.21068962 0.024114028 0.117068894 0.18020242 -0.046576373 -0.110515915
0.3129933 0.39911336 0.19020773 -0.17736208 -0.35497943 -0.4028805 0.0028241873 -0.15744662
-0.10253449 -0.057391066 0.3822708 0.38307473 -0.04154804 -0.12635556 0.1941876 -0.03616898
-0.38154277 0.14397414 0.39083833 -0.32056868 -0.08395364 0.09024604 -0.3326363 -0.34965464
0.30477107 -0.14373682 0.23789942 0.036468174 0.10081782 -0.27098387 -0.08622695 0.27036977
0.18836829 -0.11683703 0.050007485 0.31217214 -0.35810977 0.26184142 -0.12310993 -0.08342049
0.19276896 -0.3406253 -0.06302898 0.38868034 0.14553283 -0.15243357 -0.088475786 0.32264155
0.154625 0.27733037 -0.2620611 0.118309386 0.076091796 0.07453039 0.38211542 0.22924912
0.28455743 0.18279807 0.17111863 -0.07141094 -0.36068287 -0.34516373 -0.25447 -0.26449043
0.1951092 0.12893876 -0.113969974 -0.30848056 0.40423656 0.30978367 0.19914915 0.40923414
-0.21342582 -0.22789235 -0.23419698 -0.01477397 -0.35867867 0.32483828 0.011811678 0.20499392
-0.22252843 -0.040525127 0.05242373 -0.11284321 0.3849596 -0.18822199 0.12554769 -0.27752125
-0.047300003 -0.107472554 0.17681338 0.2859266 0.100150116 -0.036423493 -0.10224285 0.32245904
-0.09451191 0.2968579 -0.17955871 0.33904308 0.4047642 0.278201 0.2326356 0.15033352
-0.20223123 0.0028806524 0.13844587 -0.10864936 0.07132535 0.23716106 -0.38006666 -0.373778
-0.24625644 0.04818986 -0.07656277 0.0860222 -0.09903107 -0.2682743 0.05496979 0.27729157
-0.24443507 0.35860828 0.101243414 0.40333235 -0.37493858 -0.39129555 0.13850397 -0.37887698
-0.33521238 0.2075566 0.20083162 -0.36935297 0.29586303 -0.0768523 0.30571502 -0.23721066
-0.38874805 -0.2710265 -0.06328985 -0.40592146 -0.02842246 -0.20382972 -0.090485744 0.0032354444
0.02291286 -0.4022628 0.21246012 -0.24927908 0.24873352 0.3738826 -0.1360802 0.04582282

bias f4 [500]
00000000: e2e5 85be e437 203e f239 963d 66c8 7ebc
00000010: 0c6f c73d 977c b03e d578 803e d9fd 9f3e
00000020: b431 bc3e f073 833d 5d4a 8f3e 0967 85be
00000030: b370 74be 9682 0ebd 8842 0d3e 1fc5 283e
00000040: c2b6 9abe d5b7 09be 71d4 803e a44b 77be
00000050: 94ff c53e 4fa5 c2be 1858 b9bc 0de9 7fbd
00000060: 4d61 f2bd ddb7 483c 0c45 f7bd 2f26 1b3e
00000070: 840b b93e b16e 75bd 0899 763e 5619 15be
00000080: 7703 8c3e ac63 7e3d c28f 3ebc aee5 c8be
00000090: 420e ac3e 2907 bdbc b627 39bd cad8 18be
000000a0: 6a17 1fbd 3564 16bc 1a01 b63d b9ed a0be
000000b0: b71a 0abe 8786 673e 743a c33e 5740 3f3d
000000c0: ddce 57be 4e6e 54be 3da3 70be dc38 a5be
000000d0: 1837 8abe 7563 d13e 3829 6bbe 5170 79be
000000e0: 34e2 81be 4d75 a53e d648 813b 7a03 6e3e
000000f0: 8997 aeb9 68b3 423e f2d7 b23e 8800 c23e
00000100: 004f 9cbd 5b94 b5be 8026 e9bc 0b9e b6bd
00000110: 77a9 babe 1178 5ebe 7c0a 2f3e fe4c 113e
00000120: c8dd 403e e103 b3be a43a 093c 6c43 c2be
00000130: 0065 1cbb a3b7 763e 71ab 2b3e 9be3 593e
00000140: ca49 b6be 3164 373d fdca 9cbe 1c68 bd3e
00000150: c3fd 93bd d23b 8fbe fe51 7bbe d2fc 08be
00000160: 4905 49be 20e4 80be d6cf 64be a2fd 7abe
00000170: e89d 823e 139a 7cbe e60b ab3e c10d 943e
00000180: dc26 01bd f6de 2d3e c599 83be 8801 c6be
00000190: 20ff bbbe 5a3b f83d 717a 133e a431 2d3e
000001a0: e25d 823e d0d6 a0be 34be bb3e 9730 243e
000001b0: 81d8 c93d 3005 403e 8e0e 66be 5b10 9f3d
000001c0: 6769 be3e 1ed9 c83e 1059 47be 82e6 bfbe
000001d0: e4ef a3bd 368e 0ebe e11b 93be edf7 dd3d
000001e0: b577 733e 0934 71be d0a4 bc3e f718 913e
000001f0: 6329 4abe 65db 20be b61b 3fbc 2a88 fbbd
00000200: 3bb5 b03e ba3e 2b3e 154a c8be 6536 6bbd
00000210: 32f2 00be 12b6 afbe ae72 b93c 1841 cdbc
00000220: 6000 823e 59df b2bd 5cf6 27be b275 533e
00000230: 1dc1 3bbe 44ce 5d3e 6b6d c3bd 814d 023e
00000240: 6f20 5ebe 36ef 28b9 b547 acbe 62b8 c1bd
00000250: f593 633d 0967 85be a90f d13e adc8 c2bc
00000260: 5eea c9be 1146 fd3d f1c5 b93e e748 88be
00000270: a6d9 91be f039 443e 7e88 babe 729a 44be
00000280: b58e 84be 60ac 9f3d 9530 be3d 00e9 0abe
00000290: f7d3 843e d8a4 ca3e 326e 873e 39b3 95be
000002a0: 4eda b83e b4f9 0a3d 7888 6c3d f5cf 9a3e
000002b0: 8ef2 b5be 43e3 b33e 00ef 77bb e5e8 21be
000002c0: f724 983d 45ef bebe c229 c2bc cd8a 7b3d
000002d0: 42f7 8dbe 5d5e 51bd af96 84be bff1 5c3e
000002e0: bdbf bd3e 566b c73c a5ff 893e 276f bcbe
000002f0: 7fa2 dc3d d3b9 a43e b9f6 bbbd 3ea7 c43e
00000300: df2a cbbe 5356 acbd 3719 b43e f7a3 983a
00000310: 0355 2b3d 9f8d 0f3e 92b8 e83c 5874 d03e
00000320: 50f0 92be 4af5 bd3d dfd2 623e 1c20 9abe
00000330: dcf6 c5be c61b 893d 146f 613e 9d03 3abe
00000340: 43e3 a6bd 4123 1fbe fdc7 8f3e 068c d83d
00000350: 3be4 97be 4008 b63e 71e6 cf3d fdca b7be
00000360: 1200 ef3d 131f 5ebe 07e9 49be 251e a1be
00000370: b436 b5be 5621 833e f8a9 093e 9c61 853e
00000380: a5d2 44bc 2754 2ebe 5326 94be 1a2b c2bd
00000390: 52c0 5d3d de06 9ebe e57d 8a3e f0e4 f9bb
000003a0: d8f4 8e3e 5fe4 2a3e 2db7 163e e9ed 843e
000003b0: 25f2 88be f4b9 813d b348 3fbe 0280 83be
000003c0: 3def 0abe 2397 6d3d 27f2 27be 9257 abbd
000003d0: ae92 7c3e 62c7 853e 73c3 b33d e020 11be
000003e0: 8b9a aebe f11d 34bd fd7b bb3e 36b9 86bc
000003f0: 77a6 31be 1781 b43e 31f5 fe3d 9696 acbd
-0.2615195 0.1564632 0.07335271 -0.015550708 0.097379774 0.34470055 0.25092188 0.31248358
0.3675667 0.06418598 0.27986422 -0.26055172 -0.23871116 -0.034792505 0.13794911 0.16481446
-0.30217558 -0.13449033 0.2516208 -0.24149948 0.38671553 -0.38016745 -0.022625014 -0.062478114
-0.11834965 0.012250868 -0.120737165 0.15151285 0.36141598 -0.059920017 0.24081814 -0.14560446
0.27346393 0.062106773 -0.011630954 -0.39237732 0.33604628 -0.023074703 -0.045203887 -0.14926448
-0.03884069 -0.009179165 0.08886929 -0.31431368 -0.13486753 0.22609912 0.38130534 0.04669222
-0.21075006 -0.20745203 -0.2349977 -0.32269943 -0.26995158 0.40896192 -0.22964942 -0.24359252
-0.25367892 0.32316056 0.0039454503 0.23243514 -0.0003330077 0.1901375 0.34930378 0.3789103
-0.076322556 -0.3546475 -0.028460741 -0.08916863 -0.36457416 -0.21725489 0.17093843 0.14189526
0.18834603 -0.34963897 0.008375797 -0.37942064 -0.0023863912 0.2409349 0.16764618 0.21278231
-0.35603172 0.044773284 -0.30623618 0.36993492 -0.072261356 -0.27975327 -0.24542996 -0.13377693
-0.19630922 -0.25174046 -0.22344908 -0.24510816 0.25511098 -0.2466815 0.33407515 0.28916743
-0.0315312 0.16979584 -0.25703254 -0.38673043 -0.36718082 0.121206954 0.14402176 0.16913468
0.25462252 -0.3141389 0.3666855 0.1603416 0.09855748 0.18751979 -0.2246649 0.077667914
0.3718979 0.39228147 -0.19467568 -0.3748055 -0.0800474 -0.13921437 -0.28732207 0.10838304
0.23776133 -0.23555006 0.36844492 0.2833936 -0.1974235 -0.15708692 -0.011664322 -0.122818306
0.34513268 0.16723147 -0.3911902 -0.05742492 -0.1259239 -0.34318596 0.022637691 -0.025055453
0.2539091 -0.087340064 -0.16402572 0.20650366 -0.18335386 0.21660715 -0.09542354 0.12724878
-0.2169206 -0.00016110842 -0.33648458 -0.09458996 0.055561025 -0.26055172 0.4083226 -0.02377733
-0.3943662 0.1236688 0.3628383 -0.2661812 -0.28486365 0.19162726 -0.3643226 -0.19199541
-0.25890127 0.0779655 0.0928661 -0.13565445 0.25942966 0.3957889 0.2645126 -0.292383
0.36104053 0.03392954 0.057747334 0.30236784 -0.35536617 0.35134324 -0.0037831664 -0.15811498
0.074289255 -0.37291923 -0.023701552 0.061411668 -0.27727705 -0.051115382 -0.25896212 0.21576594
0.37060347 0.024343174 0.26952854 -0.36803553 0.10773181 0.32173023 -0.09177918 0.38408846
-0.39681146 -0.084149025 0.35175487 0.0011645545 0.04182912 0.14018868 0.028408322 0.40713763
-0.2869897 0.09275301 0.22150753 -0.30102623 -0.386649 0.066947505 0.22015029 -0.18165441
-0.081488155 -0.15540792 0.28082266 0.10573582 -0.29666314 0.3555317 0.10151375 -0.35897055
0.11669935 -0.21691541 -0.19717799 -0.3146831 -0.35393298 0.2561137 0.13443744 0.26051033
-0.012013112 -0.17024289 -0.2893549 -0.09480877 0.05413849 -0.30864614 0.27049175 -0.0076261684
0.27921176 0.16688679 0.14718314 0.2596276 -0.26747242 0.06334296 -0.18680076 -0.256836
-0.13567825 0.058005463 -0.16400968 -0.08366312 0.24665329 0.2612868 0.08777513 -0.14172697
-0.34102282 -0.043973867 0.36618033 -0.016445737 -0.17348658 0.35254738 0.1244911 -0.084271595

weight f4 [128, 500]
00000000: 494e 903c 206f 28bd 6f32 56bc 8532 b6bc
00000010: b35f 563c ef5a 433d d7b4 7fbc cb8a e93c
00000020: 5f44 a3bc 180e 9c3b db43 1cbd 39cc 07bd
00000030: 0868 1a3d 580f 27bc 16de 163d a854 1d3d
00000040: c837 2bbd 13d1 b43c 8ab3 f53c 64c9 103c
00000050: 4595 303d 47dd 9abc 3efa 1fbd 1bcc ffbc
00000060: 6c6a 79bb 2d96 1ebc 28b9 81bc 0645 3e3a
00000070: 6c7c 2bba 28b8 8b3c bf48 ccbc 9491 a239
00000080: d5a4 ae3c 15e8 f0bc 4af9 23bd 720b 843c
00000090: 2ea3 8cba 4afa 70bc 863f 06bd cbeb f43c
000000a0: c4d7 353d 29ed 893c c3a5 023c 9df1 393d
000000b0: 54e1 403d 8e41 58bc 52e6 843c 66ce 0dbd
000000c0: 00f1 f63c ef44 da3b 6d01 01bb 3c44 e93b
000000d0: 5cb9 86bb 2529 313c f780 503c 966a dcbc
000000e0: cfba 9dbc 2ea1 a63c c156 26bd 87eb d93c
000000f0: 8e25 7f3c 7020 afbb 4f8a 3f3d 02a7 203d
00000100: 495c 03bb 3205 09bd 8030 a439 6abc d63c
00000110: 8ff7 be3c 3c17 363d f498 a63c 8d6b 81bc
00000120: 2cd3 16bc 5789 f33c 9d54 bfba d3f9 da3c
00000130: 0598 0d3d ee17 83bc e381 18bd 8769 8bbc
00000140: 11b7 0dbc c846 663c d37e e33b e6e7 1bbd
00000150: 691b f93c eb4e 98bb 012f 873c 5220 da3c
00000160: 8523 4c3c f7b9 283d a6c2 70bc 8719 fc3c
00000170: 89ac 17bb e97e eebc e6cd bdbc 7095 ee3a
00000180: d9f6 343d beb8 0dbd 98b4 2e3d 6815 33bd
00000190: 7abc 86bc 4ac3 89bc 2c49 593d 261a 1d3d
000001a0: ad37 d0bb e5e6 8ebc 0c55 403d f8fb 373c
000001b0: d754 a2bc 2424 51bc 6705 b43c 49b3 86bb
000001c0: 4e6c d93c 13ed 88bc 2fe1 da3c 16e1 113d
000001d0: 722a efbc c3ef 233c 39c0 08bd a180 fb3b
000001e0: ddcd 07bd 4ec3 10bd 2573 08bd 6db2 7fbc
000001f0: 9984 743c f1e2 ea3c d0b4 bd3c 4771 82bc
00000200: c887 a8bc 7610 d23c 9081 943c a972 b5ba
00000210: c90a 14bd 59f3 263d 0f5a b6bc 9a34 26bd
00000220: 1dab 51bb 2d92 e5bb 5d5d e6bc 50aa 9c3b
00000230: d4e5 323d f801 e23c 81fa d93c 2937 283a
00000240: 0bab efbc 2ac3 53bc 5b34 f8bb d3d7 673b
00000250: 8403 09bd 8ce5 133d 0869 f13c 39d6 a4bc
00000260: 4c9c df3c 4532 633b df05 763c b33c 033d
00000270: 7927 883c 8c77 223d 39e1 a6bc 7016 9c3c
00000280: ef2b d0bc 5db9 b43c 4839 2abc 3753 173d
00000290: a45e 55ba 2f9c 15bd cf13 f63b 62dc adbb
000002a0: 4a3c 8ebc beef 17bc f4e5 2abd 95c8 8bbc
000002b0: 62c4 303b 082a 16bd 8cbe 0ebd 9772 b2bc
000002c0: 7313 193c eafa 6abc d55f 9dbc 63ad aebb
000002d0: eebc 403d f701 cfbb f7b5 cdbc 883a 00bd
000002e0: bf45 063c 649d b4bc 9580 f83c 3016 75bc
000002f0: 3be5 303c 9cc7 29bd 90c0 5bb9 714c de3c
00000300: 39e4 8d3c 6641 c7bb d959 103d 1b6e 263c
00000310: 1a98 f13c 2174 d4bc 9ae4 0dbd 40c1 953b
00000320: 3e0f 1a3d c109 b33c 53e5 003d e35a 09bd
00000330: 7661 753c 1fff c03c bf27 343d 068f 7cbb
00000340: d985 0dbd c90f cabc 64c9 42bc 40e3 393d
00000350: 250b 87bc c14b 1c3b 1669 bcbc 4e2e 3d3c
00000360: c1bf 57bb a62a 9c3c 8cea eabc 53ea 623c
00000370: 633e 0fbd 03c4 d93c d102 303d 0620 f1bb
00000380: 66c2 433d 9b5c 76ba 8bf5 09bd c894 92bb
00000390: b24f ed3c 6bc3 113d 3462 b13c 22dd 8dbc
000003a0: b650 fb3c c52c f5bc 957a 3a3d f3bf ecbc
000003b0: d92c 3e3d c8f8 1e3d fd89 c13c 9eef c9bc
000003c0: 96dc 1ab9 7893 043d 2eac e93c 86e9 423d
000003d0: 812e d53c 056b 2d3d 7514 c43b 95ee c3bc
000003e0: 54f5 0dbc f520 3dbc 4dfb 003c 67a2 d23c
000003f0: 5761 443d 7d01 063d 39d3 31bc 1ab5 2a3c
0.017615454 -0.041121602 -0.013073548 -0.022240886 0.01308434 0.047694143 -0.01560708 0.028508564
-0.019930063 0.0047624223 -0.03815065 -0.033153746 0.03769687 -0.010196529 0.03683289 0.038410813
-0.041801244 0.02207235 0.029992837 0.008837078 0.043111105 -0.018904341 -0.03905701 -0.031225255
-0.0038057817 -0.009679359 -0.01583536 0.000725821 -0.00065416726 0.017055586 -0.024937032 0.00031007512
0.021318832 -0.02940754 -0.040032662 0.016118739 -0.0010729784 -0.014708111 -0.032775424 0.029897591
0.044395223 0.01683672 0.007974091 0.045396436 0.04708989 -0.013199223 0.016223107 -0.034620665
0.030144215 0.0066610496 -0.0019684688 0.00711873 -0.004111452 0.010813032 0.01272606 -0.026906293
-0.019254116 0.020340528 -0.04061008 0.026601566 0.015572919 -0.005344443 0.04676276 0.03922177
-0.002004402 -0.03345222 0.00031316653 0.02621289 0.023311405 0.04445575 0.020336606 -0.015798355
-0.009205621 0.029728575 -0.001459736 0.026730454 0.034568805 -0.016002622 -0.037233245 -0.017018093
-0.008649603 0.0140549615 0.006942609 -0.038062952 0.030408578 -0.0046480796 0.016501905 0.02662674
0.01245964 0.041192975 -0.014694845 0.030773891 -0.002314361 -0.02911325 -0.02316947 0.0018202495
0.044180725 -0.034600012 0.042652696 -0.043721586 -0.016447295 -0.016816754 0.053048298 0.038355015
-0.0063542933 -0.017444083 0.046956107 0.011229508 -0.019815845 -0.012764964 0.021975232 -0.004110728
0.026540902 -0.016714608 0.026718704 0.03561505 -0.029195044 0.010005894 -0.033386443 0.007675246
-0.03315531 -0.035342507 -0.033312935 -0.015606505 0.014924192 0.028672667 0.023157507 -0.015923155
-0.020572558 0.025642615 0.018128186 -0.0013843375 -0.036143098 0.04075942 -0.02225974 -0.04057751
-0.003199286 -0.007005951 -0.028120691 0.004781045 0.043676212 0.02758883 0.026608707 0.0006416911
-0.029256364 -0.012924949 -0.0075746006 0.0035376444 -0.03345062 0.036107585 0.029469028 -0.02012168
0.027296208 0.0034667414 0.015016048 0.03204031 0.016620385 0.03966479 -0.020371066 0.019053668
-0.025411574 0.022061044 -0.0103896335 0.036944594 -0.0008139408 -0.0365259 0.0075096856 -0.0053058127
-0.017362732 -0.009273468 -0.041723207 -0.017063418 0.0026972522 -0.036661178 -0.03484969 -0.021783156
0.009343016 -0.014342049 -0.019210735 -0.005330728 0.047055177 -0.006317373 -0.025111182 -0.03130582
0.00819534 -0.022047706 0.03033475 -0.014958903 0.01079684 -0.041450128 -0.00020957203 0.02713606
0.01732074 -0.006080794 0.035241935 0.010158087 0.029491473 -0.02593428 -0.03464184 0.0045701563
0.037612192 0.021855237 0.0314687 -0.033533942 0.01497685 0.023559151 0.043983217 -0.0038537397
-0.034551475 -0.02466573 -0.011888836 0.045382738 -0.016484806 0.0023848864 -0.022999328 0.011546684
-0.003292069 0.019063305 -0.028676294 0.013849813 -0.034971606 0.026582723 0.042971436 -0.007358554
0.047792815 -0.00093979546 -0.033681434 -0.0044733025 0.028968666 0.035586756 0.021653272 -0.017317358
0.030678134 -0.029928574 0.04552706 -0.028900122 0.04642949 0.038811475 0.023625368 -0.024650391
-0.00014768759 0.0323672 0.028524484 0.047585987 0.026023151 0.04233839 0.005983884 -0.023917476
-0.008664448 -0.011543502 0.007872415 0.025712205 0.047944393 0.032716263 -0.010853582 0.010419155

bias f4 [128]
00000000: 1b78 0abd 5171 123d 74c2 143d b54c 31bd
00000010: 4719 2f3d 0bef b3bc fe8c 083d e749 32bd
00000020: b95b 92bc f822 97bb ada4 183d d12f 8c3c
00000030: d684 7dbc 2a44 dfba 10a8 d23c 222b 8b3c
00000040: 30c6 cd3b d5ad d23c 4187 98bc 7d00 a9bc
00000050: 1f8a 853a cf6d 16ba 3598 95bc 0440 c03c
00000060: fc8b 043d cfae ee3b f16d 91bb bac6 1f3d
00000070: 687a 023d 6b2b 2d3d 80cc 363d 8b89 18bd
00000080: 42b8 0a3d 2313 8a3a ada9 c43c 5636 103d
00000090: 828a 343c 9054 db3c 841b 8ebb 487b 883c
000000a0: 26ca 643c 4054 0d3d 75eb 823c 81f3 223d
000000b0: 1c45 363c 41bc 153d ca6b d03b 8a98 03bd
000000c0: e576 08bc a8da 07bd a121 e0bc 3ba1 92bc
000000d0: aefa 093d 3e76 32bd 1bdf e53c bf63 16bd
000000e0: cd8d f6bc 882e 093d 4101 143d a4ea c03c
000000f0: 4a96 39bd cfd4 07bc b68c 1fbd a97d f73b
00000100: b20b 063b 0baf 0dbd a7f9 093d 57e5 993a
00000110: 8cea 30bd db2d d13c 0999 013c cc76 1f3c
00000120: 3a0b 58bc 2515 043d 0c73 863c 0b90 0d3c
00000130: ce69 3b3d ca5e 0ebd 1d9f 183d b3c0 0cbd
00000140: 91c6 85ba 8745 283d 2a80 e53c 52ec a63c
00000150: 1acf ed3c 57c8 023d 401b 1fbc 49ee e93c
00000160: 62ce 04bd 1500 2c3c d93b dd3c cdef f83c
00000170: 15d3 b9bc 0d67 903a e541 a4bc a444 20bd
00000180: 63ad 503c e6e0 d93b b47f 0abd f1a4 083b
00000190: af0d fe37 b9a4 30bd 2060 9dbc a9ba a9bc
000001a0: f7dc b8bc 96cc d33c ede9 05bd 7e10 033d
000001b0: f35a a63c 1ca8 82bb e4ff 9bbc bba0 2cbd
000001c0: 8e05 003d 0a72 923b d3ee 5fbc 4133 06bd
000001d0: 7286 023d b818 fabc 3b26 29bc 7583 253c
000001e0: 6892 81bc 3f18 b3bc 0353 d4bb a466 b63a
000001f0: 3ec6 68bc 5bf9 083d c5a4 6fbc 6318 203d
-0.033805948 0.0357526 0.036318257 -0.043286044 0.042748716 -0.02196457 0.033337586 -0.04352751
-0.017866002 -0.004612323 0.037266422 0.017112644 -0.015473565 -0.0017033864 0.025714904 0.01698834
0.0062797293 0.025717655 -0.018619182 -0.020630116 0.0010188258 -0.00057384087 -0.018261055 0.023468025
0.032360062 0.0072840224 -0.004438155 0.03900788 0.031855017 0.042277735 0.04462862 -0.037240546
0.03386713 0.0010534268 0.024006689 0.03520807 0.011019351 0.026773721 -0.004336776 0.016660348
0.013964212 0.034504175 0.015981415 0.039783005 0.011124875 0.036556486 0.0063605057 -0.032127894
-0.008329128 -0.03316751 -0.027359786 -0.017899146 0.033686332 -0.043569796 0.028060487 -0.03671622
-0.030096913 0.03349164 0.03613401 0.023549385 -0.045309342 -0.008290484 -0.03895255 0.0075528217
0.0020453748 -0.034590762 0.033685353 0.0011741322 -0.04319243 0.02553456 0.007910022 0.009732913
-0.01318627 0.032246727 0.01641228 0.0086403 0.0457552 -0.034758367 0.037261117 -0.03436346
-0.0010206272 0.04108193 0.028015215 0.020376358 0.029029418 0.03192934 -0.009711087 0.028556006
-0.032423384 0.010498066 0.027006077 0.030387783 -0.02268366 0.001101704 -0.020050952 -0.03912796
0.012736651 0.0066491244 -0.033813193 0.0020850266 3.0285531e-05 -0.04312584 -0.019210875 -0.02071889
-0.022566302 0.02585439 -0.032693792 0.03199815 0.02030704 -0.0039873254 -0.019042917 -0.042145472
0.031255297 0.004469161 -0.01366778 -0.032763723 0.0318665 -0.030529365 -0.010324056 0.010102143
-0.015816882 -0.021862147 -0.0064796223 0.0013916087 -0.014207421 0.03344093 -0.014626686 0.039085757

weight f4 [4, 128]
00000000: 3bf9 4e3d 1b37 36bd 3344 3c3d d972 a0bd
00000010: 7146 5ebb 7546 9fba 15ba 3fbd b425 30bd
00000020: 057a a33d 3073 51bc cd89 6fbb 9a83 993c
00000030: 3955 53bd a89c 40bd ee2c 1ebd 5bee 6cbd
00000040: f0a1 2d3d f39b 8e3c d7d6 ac3d 4d10 30bd
00000050: 1951 07bc b3c6 063c 7731 fbbb 4688 233d
00000060: 1d7d b03d 2400 91bd 922a 793d 3dbc 29bc
00000070: ddd9 3bbd 369d 7a3d 26a5 513d 897d c6ba
00000080: c33e 68bd 85a5 7ebd 23d1 efbc c486 efbc
00000090: 2a94 0ebd bfe5 8ebd 8019 34bc 392b e4bb
000000a0: f667 b63c a127 9abd f4bf 4f3c 9df2 663d
000000b0: 3c25 e33c e0cf 23bd f70a 4d3d f83c 523d
000000c0: c61d 58bd f36b 70bd 59a4 04bd de3d 3abd
000000d0: 0dd2 d63b b22f 723d 6f58 17bd c7a8 a93d
000000e0: fe74 0a3d b1b9 963b 90d1 30bd 4a26 713d
000000f0: 98d1 93bb 48ce 0dbd 5178 32bd 64c8 563b
00000100: 95cb 44bd bcd7 ba3c 3334 7b3c 7d6d 92bd
00000110: 6763 debc 2447 283d ffc1 b93d 1cca 5b3b
00000120: 644c 46bd 9a72 ba3c 7c3e 88bd 42c7 b0bc
00000130: 66a0 913d 5a5a b1bd f03d 553d 9c5c 043d
00000140: 854e 923d fbdd 9ebd def7 573d c44f 6b3c
00000150: e1a1 a0bc 48e7 783d 1808 9a3b 799b 0fbd
00000160: 06f3 1dbd b2b1 27bc 75bf 733d 2e27 82bd
00000170: 0139 83bd 9c34 253c 83c9 9c3d f596 51bc
00000180: f027 5bbd 94a8 be3d 597a a5bd 6be1 5d3d
00000190: 14fc 8dbc a803 be3c 58a0 443d 77a9 8ebd
000001a0: d8ce 67bd f69a a3bd 953b 8dbd 6505 163d
000001b0: 6b3e 293c 4259 3d3d 64b3 9c3d 535a 14bc
000001c0: 41b4 0ebc af16 a4bd 4c4a 88bc adb6 eebc
000001d0: 68c2 19bb f13b 463d 9350 7cbd 7ffb ff3c
000001e0: af93 f73c 1743 723d eda1 2b3d a02a a83d
000001f0: 17cd e0bc cf55 8d3c c03c a83d b517 77bd
00000200: 6679 c4bc ba23 553d 27cb 933d d523 2bbc
00000210: 5bfa 643c 91fc a3bd 3779 423d f176 953d
00000220: 3148 8c3d 39e2 7e3c 89fe 3d3d 0090 9fbd
00000230: 0ffa 8bbd 0056 69bd 1ebd 93bb eca7 143a
00000240: 215c 59bd 5e89 123c bb1b 383d 510e 4d3c
00000250: 0236 8a3d 20e3 babc 24d8 91bd 5b5e 03bd
00000260: 836d f3bc aba7 5abd 3335 0bbd a3e6 b8bc
00000270: f353 2b3c c4e5 e8bc 3bc8 11bd 0f26 123d
00000280: 0ff2 6e3d dd49 ab3d 9bf7 f8bc ad21 33bd
00000290: b947 a93b 37a4 a3bc a3d4 9cbd acd7 003d
000002a0: ead6 70bb d090 9cbd aa3c f53b d71d cbbc
000002b0: 0684 5c3d 9812 9c3d b8a9 31bd e1b7 673d
000002c0: c1e4 913d 7f95 2abd d94d b13d d86f af3c
000002d0: ea75 203d c2e0 583d 216e 273d 19e7 46bd
000002e0: 0ca4 29bd 9be0 d33c 04e7 c4bc 61c6 2dbd
000002f0: cccd a6bc 142a 0bbd 3bba 153d 8781 23bd
00000300: f957 53bb 353d e6bb f324 7b3d 1c71 89bd
00000310: 9f58 963c db49 863d 4adf 5f3d de5c a4bd
00000320: c7e1 5bbc 73d6 713d fc12 623d 95c9 7abd
00000330: aa47 55bd c7d9 b33d 5e06 18bc c08c 083d
00000340: cac2 163d 3959 e4bc d9ce a3bc 1d4f 62bd
00000350: 19d6 8dbd 07dc 2d3d 8923 0dbd ecc4 f93b
00000360: a861 88bd b485 fd3c 344e 1fbd 3dea 583d
00000370: 6996 5bbd 7b18 b0bd 6aa6 6ebd 27de 9d3d
00000380: f2a9 dcbc a94c 8a3d fcbb af3c 6a3d 6b3d
00000390: 4da1 673d 33ce 683c f4d9 2c3d f468 123d
000003a0: ba9d b83c 71f8 43bd 792e a7bc f5df 27bc
000003b0: 2aec e2bc cee0 40bd 8150 a13b afcb 973c
000003c0: 3149 2ebd 65ec 97bb 0ad0 c0bd 1c39 5f3d
000003d0: ab1c 3cbd 0d1d b53b 9192 5cbd 3a73 79bc
000003e0: c536 673c 2746 3b3d d305 58bd a5aa 253c
000003f0: ad3a 323b ff97 04bd 7972 b43c 2fa1 02bd
0.050530653 -0.044486146 0.045963477 -0.078344055 -0.0033916498 -0.0012151735 -0.04680832 -0.043004707
0.07982258 -0.0127838105 -0.0036550642 0.01873951 -0.051594947 -0.0470244 -0.038617067 -0.0578445
0.042390764 0.017408347 0.08439415 -0.042984296 -0.008259081 0.0082260845 -0.007665809 0.039924882
0.086176135 -0.07080105 0.060831614 -0.010359821 -0.045862067 0.061185084 0.05118289 -0.0015143614
-0.05670048 -0.06216957 -0.029274529 -0.029239066 -0.03480927 -0.06977414 -0.010992408 -0.0069631604
0.02226637 -0.0752709 0.012680043 0.056383718 0.027727716 -0.039993167 0.050059285 0.051327676
-0.05276277 -0.0586967 -0.032383297 -0.045469157 0.0065558017 0.059127517 -0.03694957 0.08284145
0.03380298 0.004599773 -0.043168604 0.058874406 -0.0045110695 -0.034620553 -0.043571774 0.003277325
-0.048045713 0.022807948 0.0153322695 -0.071497895 -0.027147008 0.04108347 0.09070205 0.0033537215
-0.048412696 0.022759724 -0.06652543 -0.021579389 0.07110672 -0.08659811 0.05206102 0.03231488
0.07143883 -0.07757183 0.05272662 0.014362279 -0.01960844 0.060767442 0.004700672 -0.03506038
-0.038561843 -0.010235237 0.05950876 -0.06355129 -0.06407357 0.010083344 0.07655623 -0.012792339
-0.053504884 0.093094975 -0.080799766 0.054170053 -0.017332114 0.023195103 0.04800448 -0.069659166
-0.056593746 -0.07988541 -0.0689613 0.03662624 0.010329823 0.0462277 0.076514035 -0.009054738
-0.008709968 -0.08012139 -0.01663699 -0.029139841 -0.0023461822 0.04839701 -0.06160028 0.031247852
0.030221788 0.059146013 0.04190247 0.08211255 -0.027441544 0.01725283 0.08214712 -0.060325343
-0.023983669 0.052036025 0.072164826 -0.010445555 0.013975705 -0.080071576 0.04747888 0.07298077
0.06849707 0.015556865 0.04638532 -0.07791138 -0.06834804 -0.05696678 -0.0045086285 0.0005670774
-0.053066377 0.008943884 0.04494832 0.01251562 0.067485824 -0.02281338 -0.07121304 -0.032072406
-0.029715305 -0.053382557 -0.03398628 -0.022570914 0.010457027 -0.028429873 -0.035591345 0.035680827
0.058336314 0.08363698 -0.030391505 -0.043733288 0.0051660207 -0.019975765 -0.07657745 0.03145568
-0.0036749193 -0.07644808 0.0074840384 -0.024794502 0.053836845 0.07620734 -0.043374747 0.056571845
0.071237095 -0.041646477 0.086574264 0.021415636 0.03917495 0.05294872 0.04087651 -0.048560236
-0.041416213 0.025863936 -0.024035938 -0.042425517 -0.020361803 -0.033975676 0.036554556 -0.03991845
-0.003224848 -0.0070263394 0.061314534 -0.06711027 0.018352805 0.065570556 0.054656304 -0.080255255
-0.013420529 0.059042405 0.055193886 -0.0612274 -0.052070297 0.08781772 -0.009278862 0.033337355
0.03680686 -0.027874576 -0.019996094 -0.05525123 -0.069256015 0.042446163 -0.034457717 0.007622352
-0.066592515 0.030947544 -0.03889294 0.052957762 -0.05361024 -0.08598419 -0.058264174 0.07708388
-0.026936505 0.06752903 0.021451943 0.057431616 0.056550313 0.014209318 0.042200044 0.035744622
0.022536147 -0.047844354 -0.020407902 -0.010246267 -0.027700502 -0.04708939 0.004922927 0.018529741
-0.04255027 -0.0046363347 -0.0941468 0.054497823 -0.045925777 0.0055271448 -0.053850714 -0.015225226
0.014112179 0.0457212 -0.05273993 0.010111486 0.0027195618 -0.032371517 0.022027241 -0.031891998

bias f4 [4]
00000000: 6657 96bd 0332 133d 6981 543d 27b1 f73b
-0.07340889 0.035936367 0.051881228 0.00755896
